train_set_size,val_size, test_set_size 211239 26405 26405
##
 input data: 
  data/data_jan2019/0N_300/fullset 
##
__________________________________________________________________________________________________
Layer (type)                    Output Shape         Param #     Connected to                     
==================================================================================================
input_1 (InputLayer)            (None, 300, 5)       0                                            
__________________________________________________________________________________________________
conv1d_1 (Conv1D)               (None, 293, 1000)    41000       input_1[0][0]                    
__________________________________________________________________________________________________
conv1d_2 (Conv1D)               (None, 290, 1200)    67200       input_1[0][0]                    
__________________________________________________________________________________________________
global_average_pooling1d_1 (Glo (None, 1000)         0           conv1d_1[0][0]                   
__________________________________________________________________________________________________
global_max_pooling1d_1 (GlobalM (None, 1200)         0           conv1d_2[0][0]                   
__________________________________________________________________________________________________
dropout_1 (Dropout)             (None, 1000)         0           global_average_pooling1d_1[0][0] 
__________________________________________________________________________________________________
dropout_2 (Dropout)             (None, 1200)         0           global_max_pooling1d_1[0][0]     
__________________________________________________________________________________________________
fc_layer1 (Dense)               (None, 1000)         1001000     dropout_1[0][0]                  
__________________________________________________________________________________________________
fc_layer2 (Dense)               (None, 1200)         1441200     dropout_2[0][0]                  
__________________________________________________________________________________________________
concatenate_1 (Concatenate)     (None, 2200)         0           fc_layer1[0][0]                  
                                                                 fc_layer2[0][0]                  
__________________________________________________________________________________________________
drop_fc1 (Dropout)              (None, 2200)         0           concatenate_1[0][0]              
__________________________________________________________________________________________________
dense_1 (Dense)                 (None, 1)            2201        drop_fc1[0][0]                   
==================================================================================================
Total params: 2,552,601
Trainable params: 2,552,601
Non-trainable params: 0
__________________________________________________________________________________________________
Epoch 1/30
generator uses b_size:  128
opened file again
lr_decay called, new lr  0.0001
…
